…
  "train_csv_name": "train_seqs_RA.csv",
  "test_csv_name": "test_seqs_RA.csv",
  "num_workers": 8,
  "use_gpu": true,
  "save_dir": "saved_folder_train",
  "debug": false,
  "scale_loss": 1.0,
  "resume": false,
  "start_epoch": 0,
  "T_0": 10,
  "T_mult": 2,
  "eta_min": 1e-06
}-----------------------------------------------------------------------------------------------
           Layer (type)                            Input Shape         Param #     Tr. Param #
===============================================================================================
    AdaptiveMaxPool2d-1                         [7, 256, 4, 4]               0               0
               Linear-2                               [7, 256]          32,896          32,896
                 ReLU-3                               [7, 128]               0               0
              Dropout-4                               [7, 128]               0               0
               Linear-5                               [7, 128]           8,256           8,256
            LayerNorm-6                             [1, 7, 64]             128             128
                  GRU-7                             [1, 7, 64]          24,960          24,960
   MultiheadAttention-8     [1, 7, 64], [1, 7, 64], [1, 7, 64]          16,640          16,640
               Linear-9                             [1, 7, 64]           4,160           4,160
                ReLU-10                             [1, 7, 64]               0               0
             Dropout-11                             [1, 7, 64]               0               0
              Linear-12                             [1, 7, 64]           4,160           4,160
                ReLU-13                             [1, 7, 64]               0               0
             Dropout-14                             [1, 7, 64]               0               0
              Linear-15                             [1, 7, 64]           4,160           4,160
===============================================================================================
Total params: 95,360
Trainable params: 95,360
Non-trainable params: 0
-----------------------------------------------------------------------------------------------


================================================== Hierarchical Summary ==================================================
…
