…
  "test_csv_name": "test_seqs_RA.csv",
  "num_workers": 8,
  "use_gpu": true,
  "save_dir": "saved_folder_train",
  "debug": false,
  "scale_loss": 1.0,
  "resume": false,
  "start_epoch": 0,
  "T_0": 10,
  "T_mult": 2,
  "eta_min": 1e-06
}-------------------------------------------------------------------------------------------------------------
                         Layer (type)                            Input Shape         Param #     Tr. Param #
=============================================================================================================
   ResNet18ModalityFeatureExtractor-1                    [1, 7, 1, 224, 224]      11,203,072      11,203,072
                             Linear-2                             [1, 7, 64]           4,160           4,160
                          LayerNorm-3                             [1, 7, 64]             128             128
                                GRU-4                             [1, 7, 64]          49,920          49,920
                 MultiheadAttention-5     [1, 7, 64], [1, 7, 64], [1, 7, 64]          16,640          16,640
                             Linear-6                             [1, 7, 64]           4,160           4,160
                               ReLU-7                             [1, 7, 64]               0               0
                            Dropout-8                             [1, 7, 64]               0               0
                             Linear-9                             [1, 7, 64]           4,160           4,160
                              ReLU-10                             [1, 7, 64]               0               0
                           Dropout-11                             [1, 7, 64]               0               0
                            Linear-12                             [1, 7, 64]           4,160           4,160
=============================================================================================================
Total params: 11,286,400
Trainable params: 11,286,400
Non-trainable params: 0
-------------------------------------------------------------------------------------------------------------


================================================ Hierarchical Summary ================================================
…
